250425-1.pth (torch, 260643 bytes, 10 tensors)

module.conv1.weight f4 [6, 3, 5, 5]
00000000: fbe2 ab3d 0e10 e0bc 9782 3d3e 6550 90bd
00000010: 2ec5 83bd da13 ebbe 8b20 123f 785a 683e
00000020: 53bf fdbe d566 643b 9a78 353e b16d 9ebe
00000030: 4a94 54bf 2ba1 5a3f d833 1cbe d3ec 52be
00000040: d324 2fbf 2ccd 66be 0c7f ff3e 8d2b b33e
00000050: a571 01be ea43 ab3e 598d 213f 4ec1 50bf
00000060: c7ce b33e 0451 d43e 0f9c 8ebc ec58 9c3d
00000070: 9b87 dbbd dfe7 413d 6bc4 3dbe 7958 003f
00000080: 51c4 fd3c 7445 00bf c14d 563e 6931 fc3e
00000090: b690 b6be a153 79bf 8cad 623f 973a 3cbd
000000a0: abd9 c23d d4f1 15bf ceb6 63be b812 d23e
000000b0: e01a 883e b812 6abe 0a89 fb3d 05da ca3e
000000c0: 1b12 85bf a5ea 5e3e 3457 99bd 33a9 8abe
000000d0: f621 833d d108 82bd bcaa e4bd cd2e 0dbf
000000e0: 42a6 003f 515c b03e 4fd7 a5be f978 bebc
000000f0: 3ae3 3c3e f2cb 9bbd 9c29 08bf 36ac 6d3f
00000100: 75ae d2be 2f69 8dbd bb48 a9be e6f2 b43d
00000110: d1cd fb3e d8be bfbd a551 cfbd 6c2e e93e
00000120: aae0 303f d5d5 54bf 321f f03d 8a54 35be
00000130: 4b16 fd3b 3914 8ebe d93c 10be 2999 0cbe
00000140: d8df f43d 0913 bd3e 1698 0ebd e0ae 35bd
00000150: 6d62 273e 34e2 033e 3bbb 4e3f 83c6 563f
00000160: 61d1 1f3f da24 d63e 005c 13be 54c5 c33d
00000170: 44ef 673d ec73 da3d 00aa 2f3e 013d 2abf
00000180: 742f b2be a8dc e9be 3d5a f7be f69e a4be
00000190: bc74 153e 97e7 4f3e d010 433e bf5f a03e
000001a0: b452 b7bc 7212 3ebe fc5e 83be db09 a0be
000001b0: 83bd 32be 6d70 8cbe bccf 1abe f632 373d
000001c0: 88c4 dc3e 4b2b 143f 67b7 923d a60a 82bc
000001d0: f331 00bf 7950 03bf 7b49 a2bd 8377 a1bd
000001e0: f169 733e d2b4 80bd 7ce6 bfbe dc0c a2be
000001f0: d80a 7fbe 2f29 b73d 5a21 3e3e b02a 0e3e
00000200: e815 753e 748c 123d 81ff 08be df67 8dbe
00000210: 9c93 01bf 9e4f c2be 48e0 81be aa47 343d
00000220: 7f6c 0b3e 3f22 483e 60f6 7b3e 73b7 943d
00000230: 4855 0c3c 12ef 77be d2be bdbe 20ab 1fbe
00000240: 8c79 0abd 9418 723e cb5f bd3e a70d 633e
00000250: f203 333e c53a 153e b869 383d 8c32 c7bd
00000260: ce6f f5be 3245 2dbe dc36 9b3d c1b7 203e
00000270: 6b90 6d3e 1198 b83e 484c 21bf 6e30 c0be
00000280: b7f2 823e 0cca 8fbd 641c e13e 4ad5 283f
00000290: 582f 3bbd ddba be3d 50e1 2b3e f189 80be
000002a0: 7273 1f3e d11d 563d 3e0b 41be af67 8e3d
000002b0: e130 993d 23dd b8bb 7660 42bc ff2f fdbd
000002c0: 13f4 393d 0a57 96be 342f f2bd 9c66 ba3e
000002d0: fb08 d3bd 0569 623e f645 043f f340 06bf
000002e0: 2235 45be c0e8 68bd 39ab a0be 648e b03e
000002f0: ff30 213f 4da0 e2bd 66c0 5bbd e577 4f3d
00000300: 0a8c c7be d60d 1b3e 13ff 8c3d 2593 a2bd
00000310: 0454 4b3d 917e 00be 9fdd 02be 92a4 8c3d
00000320: f92f 623e 9df1 733e 22a6 8bbe 4835 24be
00000330: bd67 893e 48f8 04bd 174f 563e 490e d23e
00000340: 58f0 28bf 4cfb d6be e00f 463c 7d9a 8cbe
00000350: 8d0c a23e 1e1b 183f cfa8 6abe 8587 253c
00000360: 4817 fa3c 0902 d2be 8aae 1c3e a895 35bd
00000370: dd27 463d b592 203e c153 263c eb27 343d
00000380: 5167 943d 0aae 5ebe cecb 35be bae1 ea3c
00000390: 0d1c b83e 04ab f43e 327f 45be e27d ac3d
000003a0: ebe7 a63e c341 c13e fd57 b2bd ade3 e1bb
000003b0: b5f1 9e3e ee0c c83e e107 44bb 579c b2be
000003c0: 15ad 833e 9ee6 983e aec2 d43c 05ea 94be
000003d0: e16b aabd 868b 153e dc47 95bd d64d 64be
000003e0: 2e4f 01be 62c9 17be 85c8 5e3e bce1 da3c
000003f0: 006e 4a3d 1e9d babc 2b15 b4be 767c 96bc
0.083929025 -0.027351405 0.18506847 -0.07046584 -0.064340934 -0.45913583 0.57080907 0.22690761
-0.4956003 0.0034851332 0.17721787 -0.30943063 -0.8303877 0.8540217 -0.15254152 -0.20598154
-0.68415564 -0.22539204 0.49901617 0.34994164 -0.12641008 0.33450252 0.63106304 -0.8154496
0.35118696 0.4146806 -0.017408399 0.07634148 -0.10719224 0.04734027 -0.18531959 0.50135
0.0309774 -0.5010598 0.20928098 0.49256447 -0.3565728 -0.9739323 0.8854606 -0.045954313
0.09514173 -0.58572125 -0.22237703 0.41029906 0.26583004 -0.22858703 0.122819975 0.3961946
-1.039615 0.21769197 -0.07487336 -0.27082214 0.06402962 -0.06349338 -0.111653775 -0.5514954
0.5025369 0.34445432 -0.3239083 -0.023251044 0.18446055 -0.07607259 -0.5318849 0.928409
-0.41148725 -0.06904828 -0.330633 0.08835392 0.49180463 -0.093625724 -0.10122994 0.4554323
0.6909281 -0.8313878 0.117247 -0.1770803 0.007723605 -0.27749804 -0.14085712 -0.13730301
0.11956757 0.36928585 -0.03481301 -0.044356227 0.1634614 0.12879258 0.8075444 0.83896655
0.6242886 0.4182499 -0.14390564 0.09559122 0.056624666 0.106666416 0.17154694 -0.66499335
-0.3480183 -0.4567616 -0.48311034 -0.32152528 0.14595312 0.20303188 0.19049382 0.31323048
-0.022378303 -0.18561724 -0.25658405 -0.3125752 -0.17455105 -0.27429524 -0.15118307 0.044726335
0.4311869 0.5787856 0.071638875 -0.015874218 -0.50076216 -0.51294667 -0.079241715 -0.07884123
0.23770882 -0.06284489 -0.37480533 -0.31650436 -0.2490648 0.08943402 0.1856741 0.13883471
0.23934138 0.035778478 -0.13378717 -0.2761831 -0.5061586 -0.37951368 -0.25366426 0.044013657
0.13615607 0.19544314 0.24605703 0.07261553 0.0085652545 -0.24212292 -0.37059647 -0.15592623
-0.033807322 0.23642188 0.36987147 0.22173177 0.17481974 0.145732 0.045022696 -0.09726438
-0.47936863 -0.16920927 0.07578823 0.15695097 0.23199622 0.36053517 -0.6300702 -0.3753695
0.25575802 -0.07020959 0.43966973 0.65950453 -0.045699447 0.09312985 0.16785169 -0.2510524
0.15571383 0.05227453 -0.18851945 0.0695337 0.07480026 -0.005641596 -0.011863818 -0.1236267
0.045398783 -0.2936328 -0.118254095 0.3640641 -0.10304447 0.22110374 0.5166925 -0.52442855
-0.1925855 -0.056862593 -0.31380633 0.34483635 0.6296539 -0.11065731 -0.053650282 0.05065145
-0.3897403 0.15141997 0.06884589 -0.07938222 0.04964067 -0.12548281 -0.12779854 0.06867327
0.22088613 0.23822637 -0.27275187 -0.1603595 0.2683696 -0.032463342 0.20928608 0.41026524
-0.65991735 -0.419886 0.012088746 -0.27461615 0.316502 0.5941638 -0.22915958 0.010103111
0.03052868 -0.41017178 0.15300956 -0.044332176 0.04837786 0.15680964 0.010151804 0.04398338
0.072462685 -0.21746078 -0.17753527 0.028672088 0.359589 0.47786725 -0.19286802 0.08422448
0.32598814 0.37745485 -0.08708189 -0.006893596 0.31043783 0.39072365 -0.0029911923 -0.34884903
0.2571799 0.29863447 0.025971737 -0.29084793 -0.083213575 0.14604005 -0.07289097 -0.22295317
-0.12627861 -0.14822915 0.2175618 0.026718967 0.04942131 -0.022779997 -0.351724 -0.018369894

module.conv1.bias f4 [6]
00000000: a22a 81bc ef83 a3be 86ef 563f 8741 1bbc
00000010: 4135 08be 2251 933f
-0.0157674 -0.31936595 0.83959234 -0.009476072 -0.13301565 1.1509135

module.conv2.weight f4 [16, 6, 5, 5]
00000000: 714b b33d f60e 8c3d 6e6b ccbb e443 5e3c
00000010: b03b 3a3c bfd2 6b3d ff05 653b a1f8 27bd
00000020: e55b f1bc 42b8 9cbd 5f72 1a3d d9ce 2b3d
00000030: 0345 773c e2e2 68bc 8517 22bd ac72 623c
00000040: eef9 5d3d d6a2 433c e64b acba 81ea e03b
00000050: 493d 343d 1f6c 8a3d c92e 823c 62c3 283d
00000060: a95e e33c c55e a33d 9a16 023d 1204 0eba
00000070: d5da bdbd 1030 18be 28d8 b43d fa70 4a3c
00000080: c768 b8bd 6287 20be b6e3 36be e06a a03d
00000090: 5556 49bc 55f7 efbd a97c 0bbe 988b 22be
000000a0: 03b0 a3bc 697b a8bc efd7 cebd b343 f4bd
000000b0: d389 b3bd 97dc f1bc a81e e1bc e5c4 e7bd
000000c0: 2183 68bd c7f3 643c 386a cfbc 549c 03bb
000000d0: de5c f63c e741 643d 8392 ad3d f856 c2bd
000000e0: 393c 1dbc da05 c9bc 6a7b 12bd aa46 563d
000000f0: 977c 05be a9fc 75bd b5dd acbd e90b 6a3c
00000100: 4ef7 803d 8554 00be ca30 05be 507e 88bd
00000110: 5c1d 433d 0157 a93d b3ef d9bd 047f a1bd
00000120: 54d0 ad3c 94f9 713d 230c 8b3d 2035 c23d
00000130: 65ff 9a3d 7bee f63d b986 57bc b4ca aa3b
00000140: ce39 c23d 773b 8f3d 0fc9 023e 5f95 cf3d
00000150: a88a a03c 5395 fb3d b578 983d f97c 103e
00000160: 3acf 523d 8ef6 163d 7c43 c03d e8eb e03d
00000170: 4bc6 0e3e 4bf0 723d b6c1 033d 513d 8f3d
00000180: 4c35 a83d 6161 d63d bc7b 123e 2e7a cc3c
00000190: b13f 0ebd 09d6 acbd 63e6 2fbd 13d7 6dbd
000001a0: c797 a6bc 57e8 39bd 1fc3 aabc cf6f 263c
000001b0: 7742 b33c e24c 1f3d 15eb 88bd 6e5b 85bd
000001c0: dea6 a1bb ca4e f63b bb78 9eba e91b 59bd
000001d0: 00e6 5dbd ef2f 20bd 29c5 68bd 9a62 69bc
000001e0: 1256 56bd 5a36 abbc 9981 acbc 34a4 dbbc
000001f0: 5fe6 9dbd 7fd0 f0bd d6c4 83be 4def 6ebe
00000200: d39c b5bd 6b1e c63e 888c a7be d854 e1be
00000210: a8bb 63be 7ede db3d 8ca2 0b3f 65e1 11bf
00000220: 11fb e9be 09fe 07bd 7d90 a23e 6ddd 043f
00000230: 794d 09bf 3ff9 96be 62cf 143e 8013 903e
00000240: db6e a63e d055 5dbe 103a ebbc 7aac 2f3e
00000250: 9519 503e fd73 dc3e c78a 153d c83d 00bd
00000260: 9f35 97bd 4405 53bd e925 173d cc19 71bc
00000270: f1b5 97bd aeaf ddbd a0c2 d5bd 7328 adbd
00000280: 3fc1 52bd 4a3d 91bd 469b 07be cb86 e0bd
00000290: 8071 03be 2a5f dcbb 56cb 25bd d242 bbbd
000002a0: 1e6f 23bd 6c22 4cbd 84b3 413d 7013 363c
000002b0: 1209 5cbd 025d 603c 83ed db3c 7419 71bc
000002c0: ab2b ae3c 754d 29bd 9871 1e3d 353e f13d
000002d0: f432 c23c 251c 36bc 4670 d2bd 39b5 35bd
000002e0: 1039 ab37 3b82 3c3d a09f 53bd a5de 05be
000002f0: 8b87 04bc 8f85 f9bc cc3c 8c3d dbbf 0fbd
00000300: 5778 c1bd 521d 8dbd 30ac 1bbd 468a 423d
00000310: 3187 52bc 3e49 acbd 47e4 74bd 57fb 46bd
00000320: 3eac 5f3d 8c74 e83d 8c42 553d d6f7 51bd
00000330: 4596 81be 4620 803e 6bbe ba3d 3ebb debb
00000340: c627 2fbe a083 80be c17e a33e 3389 33bb
00000350: 16b0 f9bd 72e4 65be ef05 90be 3c2b 143e
00000360: d4a5 b6bb 49c7 75bd 3081 9cbd c818 5bbd
00000370: 28e6 743d 6ebc da3c ef56 d43d e915 f93b
00000380: ba40 a03c 9433 413e 04ce af3d 008b a83d
00000390: e395 c5bb aea0 023d dd75 0c3e 6b50 a83d
000003a0: c75f b33d 04bc 4fbc 1d5f 24bc 6782 be3d
000003b0: 6997 cf3d 567d 373e 8623 4f3d 80d1 623d
000003c0: f263 873d f8aa c73d c33e 093e 24e2 2c3d
000003d0: effa 743d b8ef 973d 9d3c cf3d f620 5a3e
000003e0: 1008 123e 69ed f93d 8168 3cbd 9939 a8bd
000003f0: c355 94bc e83c eabc 0853 3dbb ea2f a53d
0.08754624 0.06838791 -0.0062383926 0.013565991 0.01136677 0.05757403 0.00349462 -0.041008595
-0.029462764 -0.07652332 0.03770673 0.041945312 0.015092137 -0.014214249 -0.03957321 0.013821285
0.05419343 0.011940679 -0.0013145178 0.0068638925 0.04400376 0.06758904 0.01589145 0.041201957
0.027755098 0.0797706 0.031759836 -0.00054174766 -0.092702545 -0.14862084 0.08830291 0.012356037
-0.0900436 -0.15676644 -0.17860302 0.07832885 -0.01228865 -0.11717097 -0.13621773 -0.15873563
-0.01998139 -0.020566659 -0.1009978 -0.11926975 -0.08766522 -0.02952413 -0.027480438 -0.113168515
-0.05676568 0.013974137 -0.025319204 -0.0020082192 0.03007358 0.055726912 0.084752105 -0.09489244
-0.009596878 -0.024538923 -0.035762228 0.052313484 -0.13035809 -0.06005541 -0.08440725 0.014285066
0.062971696 -0.12532242 -0.13006893 -0.06664717 0.04763542 0.08268548 -0.10641422 -0.078855544
0.021217503 0.059075907 0.06789424 0.09482789 0.07568244 0.12057205 -0.013154679 0.0052121524
0.094836816 0.06993764 0.1277201 0.10135912 0.019597366 0.12284341 0.07444898 0.14110173
0.051467158 0.036856227 0.093878716 0.109824955 0.1394283 0.059311192 0.03216716 0.06994117
0.082132906 0.10467792 0.14305013 0.024960604 -0.03472871 -0.084392615 -0.042944323 -0.05806644
-0.020336045 -0.045387592 -0.020844994 0.010158493 0.021882279 0.03889168 -0.06685463 -0.065115795
-0.004933222 0.0075167166 -0.0012090424 -0.053005133 -0.054174423 -0.039108213 -0.05682865 -0.0142447
-0.052328177 -0.02089994 -0.02105789 -0.026811697 -0.077099554 -0.117585175 -0.2573611 -0.23333474
-0.088678025 0.38695082 -0.32724404 -0.44010043 -0.22239554 0.107357964 0.545449 -0.5698455
-0.4569936 -0.03320125 0.3175086 0.5190037 -0.5363384 -0.29487035 0.14532235 0.28139877
0.3250645 -0.21614766 -0.02871421 0.17155638 0.20322259 0.43057242 0.0365093 -0.03130892
-0.07383274 -0.051518694 0.03690139 -0.014715623 -0.074077494 -0.10824524 -0.104375124 -0.08454981
-0.051453825 -0.07091768 -0.13242826 -0.1096321 -0.12836266 -0.0067252116 -0.04047712 -0.09143604
-0.03990089 -0.049837515 0.04729034 0.011113033 -0.053719588 0.01369405 0.026846653 -0.014715541
0.021261057 -0.041333634 0.03868255 0.11779443 0.023705937 -0.011115109 -0.10275321 -0.04436228
2.041136e-05 0.046022635 -0.051665902 -0.13073213 -0.008088957 -0.030459194 0.068475336 -0.035095077
-0.09446781 -0.06890358 -0.038006008 0.04749515 -0.012849615 -0.08412407 -0.059788015 -0.04857954
0.054607622 0.113503546 0.052065417 -0.051261745 -0.2530996 0.25024623 0.091183506 -0.0067972234
-0.17105016 -0.25100422 0.31932643 -0.002739501 -0.12191789 -0.22450426 -0.28129527 0.14469618
-0.0055739675 -0.060004506 -0.07641828 -0.05349043 0.059789807 0.026701178 0.10368144 0.007601489
0.019562114 0.18867332 0.08584216 0.08229637 -0.006029831 0.031891517 0.13716836 0.082184635
0.087585025 -0.012679104 -0.010032442 0.09302216 0.10136301 0.17918906 0.050570987 0.055375576
0.0661086 0.097494066 0.13402848 0.042207852 0.05980962 0.074187696 0.10118983 0.21301636
0.14260888 0.122034855 -0.0459981 -0.08214111 -0.0181073 -0.028593495 -0.0028888602 0.080657795

module.conv2.bias f4 [16]
00000000: e569 473f f614 a43e f3da 8e3e 0169 37bd
00000010: a891 d7bf 0b9c 213c 018f e3be 8d5a 403f
00000020: cd53 2b3f c4b8 d0be b187 ef3f 8583 6a3e
00000030: c763 49bf 0e87 22bf 588c 883f e431 92be
0.7789596 0.32047242 0.2790142 -0.044777874 -1.6841326 0.009863864 -0.4444504 0.7513817
0.66924745 -0.40765965 1.8713285 0.22901733 -0.78667873 -0.6348733 1.066783 -0.2855369

module.fc1.weight f4 [120, 400]
00000000: 82c6 ffbc 597a 133b fe67 ce3c 39aa 4b3c
00000010: a8bf ed3c 95af 013c 2071 2e3c 7584 e4bb
00000020: 837b 58bd 7c54 67bd f149 743b d3ac ab3c
00000030: bc4f 833c 96bc 96bb 68c8 233c 12f3 7c3b
00000040: 79e6 823c 582e 973c 7cb4 ed3c d2aa 863d
00000050: e289 04bd 2581 68bd 66f1 84bd 85a8 8fbc
00000060: cbc9 253d d9f8 89bb 78e1 24bd 60bc dcbc
00000070: 461a 1dbd d132 39bd 983d e4bc 94a0 89bd
00000080: a80c c5bc 0783 d8bc 3a1a d0bc 64f1 983d
00000090: e8cc 153c ce92 d23c d459 2a3c e2f9 0d3d
000000a0: 0902 713d ad99 19bb c520 d1bb aafa 353b
000000b0: 4b83 063c 8be6 8abc d06f edbd 004d eabd
000000c0: 684a d7bd fec2 a3bd cff0 4d3d bddc c83c
000000d0: 3851 ee3c 50cc 973b 68a4 893c 2faa 553d
000000e0: d165 203d 5ed5 f8ba 0d93 c23c e86d 833d
000000f0: 2730 973c 391a 093d 0e14 b63c c94f 083d
00000100: 0e0c 6c3c 18cc afbc 927f 4c3d 7565 833d
00000110: 1308 4c3d 85d3 383c 0606 1b3c 8303 b23d
00000120: 375c ba3d 13da bf3d 5f6e 853d 9b0a 323d
00000130: f728 353c 0642 1c3b 93ac 33bc 358a 9d3d
00000140: 263e b73b 067f d13c 245a 963c f9af aa3b
00000150: 40e0 4e3d 9592 4d3c af39 b73b d472 213c
00000160: a9d7 943c 0d0e 19bc 27fb 37bc 36a3 d3bb
00000170: 3dec bc3c b25d bcbc e16d 8cbd dcaf 17bc
00000180: 0a78 29bd b5f9 4ebd d805 12bd b4bf 33bd
00000190: 25fc 05bd b885 593c 062a 88bc 6666 a6bd
000001a0: 9e37 c0bd 362b c23c 5417 fabc 114c 953b
000001b0: e8d0 3cbd 7811 bfbd bd04 61bb 3618 50bc
000001c0: d350 18bc 2946 1fbd 47bd efbc 93cf babc
000001d0: 96a8 dabd 829b 55bd 638f 6cbd 635b 80bd
000001e0: e794 c3bd 6c2c 47be c604 3abe 7124 18be
000001f0: 9e1d a7bd 4bea 033b 4674 4f3d 4f49 87bb
00000200: 1e8f 0cbd 952c dfbb 55d1 95bd 0464 78ba
00000210: 7791 17bd ff7a 3abd b68a 0fbc 6ea0 07be
00000220: 230d f7bc 4d32 8dbd 00e0 7ebd b6e9 debd
00000230: f5c6 0ebd f81f 143d c2d1 003d f085 633c
00000240: 86ac d9bb 3598 243d 2e24 3b3d b811 b33d
00000250: 4532 603d 3639 713d 9265 09bd b1ea 1fbc
00000260: 9738 6bbc 08fd 08bd df35 6b3c 107e 84ba
00000270: a291 da3b 97cc b9bc 60ac 38bd cf4e aa3c
00000280: 23d3 083c a3f1 763c ad7c ad3c 0328 ec3c
00000290: 03ec 033d a2c9 7cbc ea07 eabb cd25 a0bc
000002a0: 9214 24bd 5dfa 8abc 415c dcbc 2036 9bbc
000002b0: 2851 0fbd 25cb 85bc a0f5 5abb 7f99 7abd
000002c0: 2ef0 5ebc 65ea ce3b d9c5 3d3c dfe0 623c
000002d0: 5b58 9cbb e6a1 50bc 7aa3 aabc 3851 0ebd
000002e0: d5c9 aebb 5ff0 873d b7d5 363d fc61 2f3c
000002f0: 60e0 823c e62a 953d cb88 5f3d 54b9 4b3d
00000300: ab7f 413d 0503 543d 0395 093e dbba a3bc
00000310: 4b1c 023c b584 b3bc c8cc c03b db0a 9c3d
00000320: 668d d2bb 5f7d 2abb 74cd df3c 0a8e 643d
00000330: 5853 c13c 980d 1fbd fe0d 533b 4563 a73c
00000340: 234c 0f3d 0aa4 4e3b ce2c a4bd 14a0 11bd
00000350: 9146 66bc 74a8 4bbc 6700 14bc 8df9 f0bd
00000360: 7266 a2bd 4328 cebd 9302 a2bd c718 74bd
00000370: 42f1 04be a4fd d6bd 0a31 22be bca8 06be
00000380: a0b6 e5bd c3f2 12bd a4ad 603c 42ec e3bb
00000390: 1054 f7bb ada9 7f3d a802 49bd fdb3 4bbc
000003a0: 7ef8 00bd 095e 97bc 501a 113d a615 62bc
000003b0: ba9e 9f3c ac54 043c cae2 a63c fdb1 103c
000003c0: 8a0a 1c3d ee1f 1a3d 23a7 193d 91ef 0a3c
000003d0: 8851 aabc 1b14 ab3d e6d6 db3d d418 043e
000003e0: f23e 953d 3c10 dc3b f7a5 693d ca18 a03d
000003f0: 3def 483d 6949 f73c 02a3 8b3b 2503 ed3b
-0.031222586 0.0022503345 0.025196072 0.012430721 0.029022053 0.007915397 0.010647088 -0.006973798
-0.052852165 -0.056477055 0.0037275518 0.020956432 0.016029231 -0.004600118 0.009996511 0.003859703
0.015979039 0.018454716 0.029016726 0.0657555 -0.032358058 -0.056763787 -0.064913556 -0.017536411
0.040475648 -0.004210573 -0.040254086 -0.026945293 -0.038355134 -0.045214478 -0.027861401 -0.06720081
-0.024053887 -0.026429666 -0.02540313 0.074679166 0.009143092 0.025704768 0.010397393 0.034662135
0.05883983 -0.0023437545 -0.0063820803 0.0027767816 0.008210014 -0.016955635 -0.11593592 -0.11440468
-0.10512239 -0.07996176 0.05027848 0.024519319 0.029091462 0.0046325102 0.016802028 0.052164253
0.0391596 -0.0018984487 0.02375176 0.06417447 0.018455578 0.033472273 0.02222636 0.033279214
0.014407171 -0.021459624 0.049926348 0.06415836 0.049812388 0.011280899 0.009461885 0.08692076
0.0909962 0.09367766 0.06515192 0.043467145 0.01105713 0.0023843064 -0.010966438 0.076923765
0.0055921255 0.025573265 0.01835353 0.005208966 0.05050683 0.012547155 0.005591593 0.009854037
0.018169241 -0.009341729 -0.011229313 -0.0064586652 0.023061866 -0.022993896 -0.06856895 -0.009258237
-0.041374244 -0.050531108 -0.035650104 -0.043883994 -0.032711167 0.01327651 -0.0166216 -0.08125
-0.09385608 0.023702245 -0.030528702 0.004556187 -0.046097666 -0.09329504 -0.00343351 -0.012701085
-0.009296614 -0.03888527 -0.02926506 -0.022804057 -0.106766865 -0.052150257 -0.05775393 -0.06267431
-0.09549885 -0.1945054 -0.18165883 -0.14857651 -0.08159946 0.0020128663 0.050647996 -0.004128612
-0.034316175 -0.0068107345 -0.073153175 -0.00094753527 -0.03700396 -0.045527454 -0.008761099 -0.13244793
-0.030157631 -0.0689436 -0.06222534 -0.108844206 -0.03485771 0.0361633 0.03145004 0.013886914
-0.006642881 0.04018422 0.0456888 0.08743614 0.05473544 0.05889245 -0.03354413 -0.009760545
-0.014356754 -0.033444434 0.014356106 -0.001010837 0.006670193 -0.022680564 -0.045086265 0.020789532
0.00835112 0.015072259 0.021177614 0.028827673 0.0322075 -0.015428932 -0.0071420567 -0.019549275
-0.04005868 -0.016965086 -0.026899459 -0.018946707 -0.034989506 -0.016332218 -0.0033410564 -0.06118154
-0.013607068 0.006314563 0.011582815 0.013847559 -0.004771275 -0.012733912 -0.020829905 -0.034745425
-0.005334119 0.06637644 0.044637408 0.010704514 0.015976131 0.07283573 0.054573815 0.04973729
0.047240894 0.051760692 0.1343575 -0.01998656 0.007941316 -0.021913866 0.005883787 0.07619258
-0.0064255474 -0.0026014668 0.027319647 0.05579952 0.023599312 -0.038831323 0.0032204385 0.020433078
0.03498472 0.003153088 -0.08016358 -0.035553053 -0.01405491 -0.012430299 -0.009033299 -0.11766348
-0.07929696 -0.10066273 -0.07910647 -0.059593942 -0.12982658 -0.10497597 -0.1583902 -0.13150305
-0.112164736 -0.035876047 0.013713274 -0.0069556544 -0.007547863 0.062417675 -0.0490748 -0.012433049
-0.03148698 -0.018477457 0.035425484 -0.013799107 0.019484866 0.008076828 0.020371813 0.008831498
0.03809599 0.037628107 0.03751291 0.008479969 -0.02079083 0.08353444 0.10734348 0.12900096
0.072873965 0.0067158025 0.057043042 0.07817228 0.04905628 0.030186372 0.0042613754 0.007233041

module.fc1.bias f4 [120]
00000000: 7181 6b3e 1896 163e c11b 15bd 69d6 ab3b
00000010: 4e69 c2bd 03a4 93bd c024 8cbd 5002 6ebc
00000020: 9b72 a23e 0fb5 f93d a1a4 923c 6dbd 333d
00000030: 05ac 8cbd dffa 6c3e 90b0 6ebd 5d67 a8bd
00000040: 4833 b03c cc04 0fbd f648 ac3d 84f9 ae3d
00000050: 4a1a 09be b985 17bc 03a3 963d a269 fb3d
00000060: 0dc2 98bc 9c50 913c d421 133e 28f1 97bd
00000070: 15c1 5c3e 8067 2c3d ceff e93d 5aee 833d
00000080: f2f6 f0bc 8b64 303d 1b52 98bc 9d78 123d
00000090: 727a 693d 79b3 3d3d a440 963d 9a79 94bd
000000a0: c855 343c 7c5a 6abe 91e9 b8bc fb6a ffbc
000000b0: 1510 28be defd 87bb eadc a2bd d5db b23c
000000c0: f9e6 fabd d377 abbc 98f2 413c 954c 453d
000000d0: afd4 f43d 7684 1b3e eee5 fb3d 49ef 8a3d
000000e0: da78 1a3e 9da2 ca3d bfb2 983d 679b de3d
000000f0: 4b1c 923d 9047 a33c 03ac 77bb fce6 293d
00000100: fc33 c0bd 7bde 1bbe 88e6 07be 4b46 0e3e
00000110: 3ab7 173d 842c 17be fe02 fd3c ab2d acbc
00000120: ac53 1e3e 4b75 8d3c c26f 3c3e dd90 6bbd
00000130: 9337 fa3a c657 e83d f3dd 993d 35bb c03d
00000140: 7448 94bd 0b5e c23d 95e9 973d b39f ddbc
00000150: 9cd1 37bd 4feb 1b3e 102b f63d 9968 b33c
00000160: d22c 5d3e a905 323e cf0c db3a 9a74 de3d
00000170: 2c3c 5a3d 6221 4bbe f114 eabd 8bb4 13be
00000180: 5f25 9f3c 9522 09be 6c1e cb3d 9c85 663c
00000190: c687 6ebd b31a 99bc 13b2 813d 9cee 9cbd
000001a0: 037f acbd 4e39 833d 9321 a3bd 3792 173e
000001b0: 1ed6 0e3c 6c7b 86be 9bdc b23d 3a33 23be
000001c0: 225c 473d d7db 6bbd abae fcbd 55f1 32bc
000001d0: d92c 61bd c14c 89bc 7f5a 893d faa3 19bd
0.22998597 0.14705694 -0.03640342 0.0052440655 -0.094927415 -0.07209017 -0.06842947 -0.0145269185
0.31728062 0.12192737 0.017900767 0.043881822 -0.068687476 0.23142575 -0.058273852 -0.0822284
0.021508828 -0.034916684 0.08412354 0.08543685 -0.13388935 -0.009248191 0.07355311 0.12276007
-0.018647218 0.017738633 0.14368373 -0.07419044 0.2155803 0.042090893 0.11425744 0.06441946
-0.029414628 0.043064635 -0.018593838 0.035759557 0.05700154 0.046313737 0.07336548 -0.07249756
0.01100678 -0.2288608 -0.02257231 -0.031178942 -0.16412385 -0.0041501364 -0.07952292 0.02183334
-0.12251086 -0.02093116 0.011837624 0.048168737 0.11954629 0.15187249 0.12299715 0.06783921
0.15085164 0.09894297 0.07455968 0.108694844 0.07134303 0.019931585 -0.0037791736 0.04148005
-0.09384915 -0.15221588 -0.13271534 0.13894002 0.037039973 -0.14763075 0.030885216 -0.02101787
0.15461606 0.017267844 0.18402007 -0.0575112 0.0019090049 0.113448665 0.075130366 0.09410707
-0.07240382 0.094905935 0.07417599 -0.02705369 -0.044877633 0.15226482 0.12019932 0.021900462
0.21599129 0.17384972 0.0016712191 0.10862084 0.05328004 -0.19836953 -0.114297755 -0.1442434
0.019427 -0.13392098 0.09917912 0.014069941 -0.058234952 -0.018689489 0.06332793 -0.076626986
-0.08422663 0.064074144 -0.07965388 0.1480187 0.008718042 -0.26266038 0.087334834 -0.1593751
0.04867185 -0.057582702 -0.12338003 -0.010921796 -0.05497441 -0.016760232 0.06706714 -0.037509896

module.fc2.weight f4 [84, 120]
00000000: 920e 873d 3356 27bc 0c11 7f3c 55b5 3ebe
00000010: 680f 183d d104 e4bc 9c09 99bd c445 9dbd
00000020: e521 20ba 3f50 303d be7d 353d 0f8a 04bd
00000030: 3123 bbbc 2770 11bd f34a 7cbd 7fe0 593e
00000040: 0788 86bd cc70 943d d074 b33c ecdf ce3b
00000050: 7dcc 8cbd 733e 26bd c162 0abb 88ad 983d
00000060: d217 02be c837 83bd d9cf 6c3d 3202 773c
00000070: dc98 0ebe 882a 57bd f6f9 933d cc52 2f3e
00000080: 2fda c8bd 2416 ec3d be41 78bd 8470 5dbd
00000090: 302a babc 10fd d4bb 0f90 9d3d d314 b33d
000000a0: d094 d93c 6131 0e3e afc1 913d dae7 c03c
000000b0: 110b ab3d cee7 b5bc 24b4 a1bc bc6a 35bd
000000c0: 487a 61bd e61a ee3c 3702 163c 7133 db3c
000000d0: 89d6 ca3d f47d 2a3e 0eb0 1d3e 58a5 f2bc
000000e0: ddf4 053d 1cf7 f63b 49af 0f3e 01d7 58bd
000000f0: 38e5 aa3d 036b 60bb d85f 2ebe 5ea1 6a3d
00000100: 764a 333d 1d1f 383e 9a65 e13c 00a9 a9bc
00000110: db25 23be 8165 24be 5770 9e3d f64c a0bd
00000120: 7b7e 51bd ecc6 a33c a042 aebd 547b a1bc
00000130: f320 753d d988 97bd 8da8 413d 8bcc 23bd
00000140: b18a dcbd c597 9ebd 2c36 bb3c e5bc 833b
00000150: 75a0 b53a d4d7 25bc 86ea cf3c f285 15be
00000160: 746f 243e 991e 4b3c 8373 20bc b07a 7ebd
00000170: dc42 063e db13 8ebd d125 dbbd 804c 1f3d
00000180: a05b 843d 916b 453d 0735 debd 80b7 cdbd
00000190: 7d81 67bd 1eb7 f23c 33d2 88bc 8d2e 0d3c
000001a0: 4ce7 aabd 57ed 023e ea95 85bd 5e75 08bd
000001b0: fb88 df3b 9b43 1dbe 9ff7 4dbc 77c3 f73c
000001c0: b990 07be fab8 ddbc 2475 2d3d e88b 7b3d
000001d0: 4f50 4bbd d804 15bd d4dd 9e3d 72e0 5f3d
000001e0: b17f 013d 5028 cdbc 3012 783d 23ec d8bd
000001f0: cf8d 57bb ee21 093d 9643 a5bc 2a38 6cbd
00000200: 9c3e 8d3d d8da c2bd 4109 9e3d e566 efbd
00000210: a53b 9fbd 5465 a73b 04f2 903c d4d6 f3bc
00000220: 4441 55bc d876 dfbd 8285 85bd 6666 a8bb
00000230: 96c3 d83c 35e8 873d d394 7bbc e485 c1bc
00000240: b07e 8fbd c3c0 d0bd bda9 dd3c 4eda 9cbd
00000250: 2ba3 f7bc 694d a1bd db18 573d 51df 8bbc
00000260: b6db f3bd d336 613e 0884 88bd e3c3 833d
00000270: 649a c3bc 48b5 a1bd 2b3d ad3d 8ba4 d9ba
00000280: 3106 ab3b deef 57bc 6d48 af3d 73a5 80bb
00000290: 18ab d53d b806 b2bd c1a2 62bc 8f1e 88bd
000002a0: 4c34 ea3c 08a2 de3d 0ee4 f7bc 394c a43b
000002b0: ee40 f0bc 5c8d 3e3d 9d76 b33d d8cb ecbd
000002c0: a6e9 2b3d 59a5 363d f961 793d 2f3d a43c
000002d0: f38b 4ebc 791f 15bb ac56 18bd 33af 7e3c
000002e0: 69ff 49bd 183e 3cbd 40f9 dbbd 1a8a 19bc
000002f0: 9e25 3ebd 04d0 d6bc a752 973d 177a 073d
00000300: aab2 f2bc cb63 36bd 7ad5 783b 5ad2 45bd
00000310: 32c5 e03d 5801 cf3d 2ede 65bd 9e77 0cbd
00000320: 18ea 0abd f3e0 1b3d e8fc b03c 1cbd 9dbd
00000330: be55 c8bd ae25 6f3c e8f9 453b 45e7 c4bd
00000340: d017 003e c116 a23d c33b dc3b ddeb f93b
00000350: 8c5a 143e 0fa4 dfbd 1fd2 bebd 08d2 df3d
00000360: d6b3 12bd cffe 313d 519e 01be 28d2 8dbc
00000370: 31b2 5bbd 07db 7ebd 70c1 b7bd 93ca 493e
00000380: 8c31 f23c 6263 2abd 5013 1cbe 8002 81bd
00000390: 1e0b 59bc d457 833d 3db3 023e 1785 e4bb
000003a0: 8978 60bd 5b83 e03c b01a 8fbd f555 453e
000003b0: fab7 76bd 68d8 9bbd 7309 9fbb a6cf 45bc
000003c0: 7943 8c3d aae4 bb3d efd3 b73c 56fe 9d3e
000003d0: 4644 bcbd ec26 b9bc 2462 3aba 1c18 b8bd
000003e0: a6d1 903d ef1d da3c 2967 9cbd fc6d 0cbe
000003f0: acd2 3e3d b1f0 3c3c 69f3 b3bd 8036 b53d
0.06594576 -0.010213423 0.015568029 -0.1862386 0.037124068 -0.027834328 -0.07472536 -0.07679322
-0.00061085663 0.04304528 0.04430937 -0.032358225 -0.022843929 -0.035507347 -0.061594915 0.21277045
-0.06568914 0.07248077 0.021906286 0.0063133147 -0.068749405 -0.0405869 -0.002111599 0.074549735
-0.12704399 -0.06407124 0.057815406 0.015076207 -0.13925499 -0.052530795 0.07225411 0.17121428
-0.0980724 0.115276605 -0.06060957 -0.05406238 -0.022725195 -0.006499894 0.076934926 0.08744206
0.026560217 0.13886024 0.0711702 0.023548055 0.0835172 -0.02220526 -0.019739218 -0.044291243
-0.055048257 0.02906556 0.0091558015 0.026757928 0.099042006 0.1664961 0.15399191 -0.029619858
0.032704223 0.007536782 0.1403171 -0.05293942 0.08344501 -0.0034243471 -0.17028749 0.057282798
0.043772183 0.17980619 0.027514268 -0.020710468 -0.1593241 -0.16054346 0.07736271 -0.07827179
-0.05114601 0.019992314 -0.085088015 -0.019712128 0.059845876 -0.073991485 0.047279883 -0.03998999
-0.10768641 -0.077437915 0.02285298 0.0040203207 0.0013857024 -0.010122258 0.025380384 -0.14601877
0.16058141 0.012397432 -0.009793165 -0.062128723 0.13111442 -0.06937381 -0.10700572 0.038891315
0.064627886 0.048198286 -0.10849958 -0.100447655 -0.056519974 0.029628333 -0.016701793 0.008617056
-0.08344898 0.1278585 -0.065227345 -0.033315055 0.0068217493 -0.1535782 -0.0125712445 0.030244572
-0.13238801 -0.027065743 0.042348042 0.061412722 -0.049637135 -0.036381572 0.07757154 0.054657407
0.031615917 -0.025043637 0.06056422 -0.105919145 -0.003289092 0.033479623 -0.020173829 -0.05767075
0.068967074 -0.095143974 0.07716609 -0.116895474 -0.07775048 0.005108515 0.017693527 -0.029765524
-0.013016049 -0.109113395 -0.06519605 -0.00513916 0.02646045 0.06636087 -0.015355307 -0.023623414
-0.070065856 -0.101930164 0.027058477 -0.07658826 -0.030229172 -0.07876093 0.05251394 -0.017074259
-0.11907141 0.2199357 -0.06665808 0.06433847 -0.02387733 -0.07895905 0.084589325 -0.0016604824
0.005219244 -0.013179747 0.08558736 -0.003925973 0.10433024 -0.08692688 -0.013832749 -0.066464536
0.02858939 0.10870749 -0.030260112 0.0050139693 -0.029327836 0.04652153 0.08762858 -0.115623176
0.04197087 0.04459128 0.06088445 0.020048706 -0.012606609 -0.0022754355 -0.03719203 0.0155447
-0.049315844 -0.045957655 -0.107409 -0.009371305 -0.046422593 -0.026222236 0.073888116 0.03307542
-0.02962621 -0.044528764 0.0037969039 -0.04829631 0.10975112 0.10107678 -0.05612009 -0.034293763
-0.033914655 0.038056325 0.02160497 -0.077020854 -0.09781979 0.014596386 0.003020877 -0.09614424
0.12509084 0.07914496 0.0067209913 0.007626994 0.14487666 -0.109199636 -0.09317421 0.10928732
-0.035816036 0.043455895 -0.12658049 -0.017312124 -0.053636733 -0.0622206 -0.08972442 0.19706182
0.029564641 -0.041598685 -0.15241742 -0.06299305 -0.013247279 0.06413236 0.12763686 -0.0069738734
-0.05480245 0.027406385 -0.06987512 0.19271071 -0.060234047 -0.076096356 -0.0048534214 -0.012073433
0.06848807 0.091744736 0.022439925 0.30858105 -0.091927096 -0.022601567 -0.0007109961 -0.089889735
0.07071237 0.026625602 -0.07636864 -0.1371383 0.04658763 0.011531995 -0.08786661 0.08848286

module.fc2.bias f4 [84]
00000000: 7ed1 51bd 8e4f 733e 31d1 d43e f69b 333e
00000010: 1f3a 953e 549a 313e 9c63 15bc 1008 eabd
00000020: 5644 233c 1644 943c 0ae2 f93e 1fcc a7bd
00000030: 3277 f9bd d1da 13be 1b9f 8c3d ea4d b23d
00000040: 6bae 893c 3a82 243d 8c62 aabb 6924 c93d
00000050: 70a2 db3d fa55 ce3e 3977 5f3e c5da 403e
00000060: 9ae7 9f3e 1f8e 043e 1bdd d23e 9b4d cfbd
00000070: 8562 e03e b8c7 c7bc 0826 163d 5b1f dd3d
00000080: 3aac 693e dcd7 623d 02a0 d9bd 2936 f33c
00000090: 666d 363a 401d 783d b8a2 593d e981 bd3e
000000a0: eaaa 6b3e 52d4 0b3e 1bbc 5c3e 4eb6 553e
000000b0: da6f 873e 33a6 fb3d c7a0 7a3e edba 4abd
000000c0: b848 483e 0060 6d3e 97c1 d23d fa9c eebb
000000d0: 4fb6 24be 9e8d b93b 0058 893e 66a3 f33e
000000e0: 8c0b fd3e 4f89 c5bd 4918 bd3d 86c1 e73a
000000f0: 02fd 053f b503 e7bc d887 c53e 6218 a63e
00000100: f6af 6d3e 99e6 7d3e 6092 3f3e 57c5 373e
00000110: c706 ce3d 868c 093f d433 813d 817a 023e
00000120: d479 8c3e 60df 5b3d 2008 c23e 2e12 ef3e
00000130: b262 b33e b62b 233d 6629 113f 26e5 bbbb
00000140: b635 bf3e 3ea7 53bc e44e eb3d 33e5 873e
-0.051225178 0.23760816 0.4156585 0.17539963 0.29145905 0.17344028 -0.009117987 -0.11427319
0.009965023 0.018098872 0.48805267 -0.0819323 -0.12180938 -0.1443894 0.068662845 0.08706267
0.016806802 0.040163256 -0.005199736 0.09821398 0.10724342 0.4029997 0.21822824 0.18833454
0.31231385 0.1294484 0.41184315 -0.10122224 0.43825164 -0.024387226 0.036657363 0.10796996
0.22819605 0.05538164 -0.10626222 0.029688912 0.00069590507 0.06057477 0.053133696 0.37013176
0.23014417 0.13655213 0.21556132 0.20870325 0.26452523 0.12287559 0.24475394 -0.049494673
0.1955899 0.23181152 0.102908306 -0.0072818967 -0.1608517 0.005662634 0.2682495 0.475856
0.49422872 -0.0964533 0.09233148 0.0017681576 0.52339184 -0.02820001 0.38580203 0.32440478
0.23211655 0.24794997 0.18708181 0.17946373 0.100598864 0.53730047 0.063087136 0.12742044
0.27436697 0.053679824 0.37896824 0.46693558 0.35036236 0.039836608 0.56703794 -0.0057341037
0.37345666 -0.012918292 0.114896566 0.26542053

module.fc3.weight f4 [10, 84]
00000000: 14b4 ac3e c296 c0bc 485e 36be be5f 6ebe
00000010: ff67 4c3e 3fd9 a83d 635d 57bb 34d0 2a3e
00000020: eefc 293d e72a 243e 3898 19bd 2130 d83e
00000030: 8a5d 3f3d ab6e 5fbd d4f4 a13e 981b a03e
00000040: 384d 303d 5ed5 9bbc 3c01 97bd 9aae 19bd
00000050: 19b6 1abe a502 eabc 6e7e 47be cf2a 393e
00000060: 31f3 39be 8f95 11be 33c2 9f3d 71b8 b2bd
00000070: 41a4 a4bd 5e74 ff3c 54a2 9b3d 1940 34be
00000080: c22a 46be 5402 373e cd77 4ebd 4f3e 83bd
00000090: 7a49 52be 03e3 e3bc ae02 4abe f032 a5be
000000a0: af37 c1bd b8c5 98bd e0d9 97be 918a f83d
000000b0: b29a 6cbe 0c07 1c3b 760f 873e 773e 223e
000000c0: 7f2a e8bd b85e 40bd 7921 c93e 6719 983d
000000d0: c306 5e3d ae3a 993c e84c 50be 0809 8cbe
000000e0: 6175 003e 0822 053d a957 053e c5ac 00be
000000f0: 4a14 fabd db25 8a3e 4681 5cbc 4a4c 603e
00000100: 2732 cebd 1e19 213e e3e1 e93d 8485 23bd
00000110: 14f0 54be 0606 1abe 1e3c 62bd ad00 cebd
00000120: d378 80ba 0922 db3d 7e8a f1bc 6024 73be
00000130: 9d0f 443e f700 473e a1d7 253e 3d41 dc3c
00000140: fda5 c4bd 6343 8c3e 37e6 22be d9a9 17be
00000150: 3f80 56bd d492 11bd c2e2 a8bd a25a d43c
00000160: 4611 fe3d 2c21 9b3d 8f2f 60bc 5d4f 33be
00000170: a3d2 a3bd 6ed5 813e 5be1 99be 65d4 27bd
00000180: d0ee 953e 991d 4c3e 5778 a0bc e9ba b4bd
00000190: 1b35 93bd 0a8d 41bd dc26 22be 4b07 04be
000001a0: c591 953b 1973 8abd bb8b 05be 97d4 a1be
000001b0: de4e a3bd 9a36 28be 00af 233e b7a9 c93e
000001c0: 03fc babd d84d ad3e f5ef 1abe 49c7 43bc
000001d0: 35b3 88bd 8991 bfbc ee08 da3e 311b 2c3e
000001e0: 1c12 be3e 1768 183f e116 623e e5cc 913d
000001f0: 2d95 2abe f3bd fcbd 5084 193d f1b1 683e
00000200: 934b 1ebe ed49 493d f607 243e c040 993b
00000210: 4cf3 bf3d 5598 c3bd 2ad3 67be 1566 e13e
00000220: 292e bd3e 9581 1dbe 41f0 d0bd bab9 95bd
00000230: 60e7 05be c714 49bd 0ab7 103d ffe7 c5bd
00000240: 7efa 1c3c 505a e2bd 00be 47be fea8 ee3b
00000250: 1585 1bbd 8206 41be 028d 3bbd f660 203c
00000260: e0ae 7b3e c844 96bc 300d 85bc fd6d 34be
00000270: 5951 03be 4c54 9a3e 8a4d 40bc 1e48 39be
00000280: 7777 35be 611e ee3d ade4 96be 3879 b93e
00000290: 67bd 1cbe c5a3 5f3d f333 85bd 7c75 0abd
000002a0: 19c8 b0bc bc23 06be 1d4c 823e d40e 7d3e
000002b0: 7e1c 80be 3151 1cbe 1954 733e 0a6e 363d
000002c0: ec67 103e 1306 6b3e 8e7c 103e 558d 073e
000002d0: 08fe 71be 5262 29be 5afd 1ebe d517 0a3d
000002e0: e284 cb3e 792c 17be 10b9 3fbd 1149 4ebe
000002f0: de7c 593d 8aa5 bb3d 61cd 8e3e 182a f63d
00000300: 3639 a3be c6ae 37be 22d1 e7bb e96c ecbd
00000310: 5a9d 7d3d 71f6 523d a435 093e 201a 47be
00000320: f969 c23d 9873 3bbe 1f37 19be 12dd 02be
00000330: 9d98 b0bb d41e 5ebd ed7a b1bc cb2a e73d
00000340: b09f 52be 49a3 8e3d 2107 96bd 7256 1fbd
00000350: 7df0 09be 67f5 f2bd 9086 20be b201 923e
00000360: d572 23be c948 80be de1c 903d eefd ebbd
00000370: 21d9 403e e701 12be 57c9 c23e e886 2dbd
00000380: 6802 973e 0a01 b33e 586c b6bc fd91 903e
00000390: 664f f1bd b581 993e e0b9 3a3d cb14 2ebe
000003a0: 56eb b3bb 3914 0d3e cdc0 2fbd 740d 2b3d
000003b0: 8fac 5a3d 93b6 143e c516 a73e 16ef 27be
000003c0: 5b90 55bd 544d 37be c0b6 813c 1704 fabc
000003d0: ed39 97bd b7d2 a3bc d386 7dbc 3fc0 f9bd
000003e0: 50e7 3e3d f8b8 043e d1b2 80bd 5e83 ca3e
000003f0: 4f7d 213d 0771 65bc 39c9 d33d 16d6 413d
0.3373114 -0.023509387 -0.17809403 -0.2327871 0.19961546 0.082445614 -0.003286206 0.16680986
0.04150098 0.16031991 -0.037498683 0.4222422 0.046720065 -0.0545489 0.31632102 0.31271052
0.04304239 -0.01902264 -0.07373282 -0.03752003 -0.15108527 -0.028565714 -0.19481823 0.18082736
-0.18159176 -0.14217208 0.078007124 -0.08726586 -0.080391414 0.031183418 0.07599321 -0.17602576
-0.19352248 0.17871982 -0.05040722 -0.06408369 -0.20535842 -0.027818209 -0.19727585 -0.32265425
-0.09434449 -0.07459587 -0.29658413 0.121358044 -0.23105887 0.0023807911 0.26378983 0.15844141
-0.113362305 -0.04696533 0.3928335 0.0742672 0.054205667 0.018704738 -0.20341837 -0.2735064
0.12544776 0.032503158 0.13021721 -0.12565906 -0.12210901 0.26982006 -0.013458556 0.21904102
-0.100681596 0.15732238 0.114200376 -0.039922252 -0.20794708 -0.1504136 -0.055233113 -0.10058723
-0.0009801633 0.10699851 -0.029484984 -0.23744345 0.19146581 0.19433962 0.16195537 0.026886577
-0.09601972 0.27395162 -0.15908132 -0.14810885 -0.0523684 -0.035540417 -0.082463756 0.025922123
0.124056384 0.075746864 -0.013683214 -0.17510743 -0.0799916 0.25358146 -0.30054745 -0.04097404
0.29283762 0.19933166 -0.019588633 -0.08824713 -0.071878634 -0.047253646 -0.15835136 -0.12893407
0.004564496 -0.067602344 -0.13041584 -0.31607506 -0.07974027 -0.16427079 0.15984726 0.39387295
-0.09130099 0.33848453 -0.15130599 -0.011949369 -0.06674806 -0.023384826 0.42584938 0.16807248
0.3712319 0.5953383 0.2207904 0.07119159 -0.16658469 -0.123409174 0.0374797 0.2272413
-0.15458517 0.049142767 0.16018662 0.0046769083 0.09372577 -0.095505394 -0.22639146 0.44023195
0.3694928 -0.15381463 -0.10202075 -0.07310815 -0.13076544 -0.04909208 0.03533081 -0.0966339
0.009581206 -0.11052382 -0.19506073 0.007283329 -0.037968714 -0.18850139 -0.045788772 0.009788742
0.24578428 -0.018343344 -0.01624164 -0.17620082 -0.12824 0.30142438 -0.011737237 -0.18093917
-0.17721353 0.11626888 -0.2947134 0.36225295 -0.15306626 0.054599542 -0.06504049 -0.033803448
-0.021579789 -0.13099569 0.25448695 0.24712688 -0.25021738 -0.15265347 0.2376255 0.044538535
0.14102143 0.22951536 0.14110014 0.13237508 -0.23632061 -0.16541412 -0.15526333 0.033714134
0.3974982 -0.14763059 -0.04680735 -0.2014506 0.0530976 0.091624334 0.27891067 0.120197475
-0.31879586 -0.17937765 -0.007074491 -0.115442105 0.06191764 0.051504556 0.13399369 -0.1944356
0.09492869 -0.18305814 -0.14962433 -0.12779644 -0.0053892867 -0.05422862 -0.02166506 0.11287459
-0.20568728 0.06964738 -0.073255785 -0.0389008 -0.13470645 -0.11863213 -0.15676332 0.28516918
-0.15961774 -0.2505553 0.07036756 -0.115230426 0.18832828 -0.14258538 0.38044235 -0.042364985
0.29494023 0.3496173 -0.02226846 0.2823638 -0.11782722 0.2998177 0.04558742 -0.1700012
-0.0054907007 0.13777246 -0.04290848 0.041760877 0.05338722 0.14522772 0.3263456 -0.16399798
-0.05213962 -0.17900592 0.015834212 -0.030519528 -0.07384095 -0.019997938 -0.015474039 -0.12194871
0.046607316 0.12961185 -0.062841065 0.3955335 0.039426144 -0.014003999 0.103411146 0.04732331

module.fc3.bias f4 [10]
00000000: ab84 52be fa66 59bf 2b06 52be b0b4 053f
00000010: 6c7a 5a3f 26e9 013e ab1a c6bd 0e13 0fbe
00000020: 1313 a03d 862b adbd
-0.20558421 -0.84922755 -0.20510165 0.5222883 0.8534305 0.12686595 -0.09673055 -0.13972113
0.07816138 -0.08455567
